data.pth (torch, 4959 bytes, 6 tensors)

linear1.weight f4 [8, 45]
0	0x3e9910c4	0.29895604
1	0x3f1e519f	0.61843294
2	0x3d595dd6	0.053068005
3	0xbe6ba7be	-0.23013207
4	0x3f023b17	0.50871414
5	0x3f14d14b	0.58131856
6	0x3ea4e490	0.3220563
7	0x3f155296	0.5832914
8	0xbeb677ff	-0.35638425
9	0x3e2242f5	0.15845855
10	0xbe693277	-0.22773157
11	0x3e80734e	0.2508797
12	0x3ebd47d8	0.36968875
13	0xbe71b451	-0.23603942
14	0x3eb4a222	0.35279948
15	0x3edf21ef	0.43580577
16	0x3ecb5224	0.39711106
17	0xbec2a501	-0.38016513
18	0x3e22e09f	0.15905999
19	0xbe9114ef	-0.28336284
20	0x3e7dec8a	0.24797264
21	0x3ea6f876	0.32611436
22	0x3e9e8dcd	0.3096756
23	0x3e195290	0.14972901
24	0x3f2735e5	0.6531661
25	0x3f54e87f	0.8316726
26	0x3e48afc5	0.19598301
27	0x3e8e6de7	0.27818224
28	0x3ea27b28	0.31734586
29	0x3ebcc4e9	0.3686898
30	0x3e7ef856	0.2489942
31	0x3e91f11c	0.28504264
32	0x3ed7a033	0.4211441
33	0x3f06e03a	0.5268589
34	0x3e303b84	0.17210203
35	0x3e31a2ad	0.17347212
36	0x3f1d5ce5	0.6146987
37	0x3f22cee4	0.6359694
38	0x3e1651c9	0.14679636
39	0x3e862ea0	0.26207447
40	0x3eb0d97d	0.3454093
41	0x3e3ab3af	0.18232606
42	0xbe9a660d	-0.30155984
43	0xbde64a76	-0.11244671
44	0x3e74c947	0.23904906
45	0xbe1b2921	-0.15152408
46	0xbe1e9b15	-0.15488847
47	0x3f4929f7	0.7857966
48	0xbecccd14	-0.40000212
49	0x3e308a2a	0.17240205
50	0x3e59c441	0.21266271
51	0xbe57dd89	-0.21080603
52	0x3f131e65	0.57468253
53	0x3e2195c7	0.15779792
54	0xbe3a3942	-0.18185905
55	0x3e089587	0.1333829
56	0xbea21bb0	-0.3166175
57	0xbd9670db	-0.07345744
58	0x3e3ee18a	0.18640724
59	0xbddf4000	-0.10900879
60	0x3ec11d7a	0.377178
61	0x3eb07a58	0.3446834
62	0x3e9b02cc	0.3027557
63	0xbd886a66	-0.06660919
64	0x3e9af12c	0.30262125
65	0x3d717317	0.05894765
66	0xbd86d8f4	-0.06584349
67	0xbf090e5b	-0.5353753
68	0x3ebce8fd	0.36896506
69	0x3e7f6da9	0.24944176
70	0x3f04af1d	0.518297
71	0x3f0d2a37	0.5514254
72	0x3edfdd06	0.43723315
73	0xbd56ad6f	-0.052411493
74	0xbe24b5aa	-0.16084924
75	0x3f0fd376	0.5618204
76	0xbd975096	-0.073884174
77	0xbbea9dae	-0.00715991
78	0xbe5f7d15	-0.21825059
79	0x3f09bf24	0.5380728
80	0x3dbed1bb	0.09317347
81	0xbbf95875	-0.007609422
82	0x3ef4602a	0.47729617
83	0xbcb42589	-0.021990554
84	0x3d5853c8	0.052814275
85	0xbe9695c5	-0.2941114
86	0xbe650e2e	-0.2236869
87	0x3e90e1b9	0.28297213
88	0xbf0f24ba	-0.55915415
89	0x3f038c9d	0.51386434
90	0xbdc691c4	-0.09695771
91	0xbe94e473	-0.29080543
92	0x3f341b70	0.70354366
93	0x3ebaa6a9	0.36455277
94	0x3d343b1e	0.04400169
95	0x3e102a68	0.14078677
96	0xbd283edb	-0.04107557
97	0x3f167ddd	0.587858
98	0xbe2f7a27	-0.17136441
99	0xbe101e41	-0.14074041
100	0x3d23fc2f	0.040035423
101	0x3e714216	0.23560366
102	0x3cbd5fce	0.023116972
103	0xbd5ce9bf	-0.053933855
104	0xbd9c4bc7	-0.07631641
105	0x3ecdfe45	0.40233055
106	0x3e81a92d	0.25324383
107	0xbe273dd1	-0.16332175
108	0xbb85ed58	-0.0040871315
109	0xbe478d06	-0.1948739
110	0xbe666c3b	-0.22502224
111	0x3ce108bd	0.027469987
112	0xbefc17fb	-0.49237046
113	0x3ef2b378	0.4740255
114	0x3e490eb1	0.1963451
115	0x3eb9c970	0.36286497
116	0x3eccf6e2	0.40032107
117	0x3e9b3a64	0.30317986
118	0xbe4e72ee	-0.2016103
119	0xbcad5c10	-0.021162063
120	0x3f01fe0e	0.5077828
121	0xbd3f6274	-0.04672475
122	0xbe1bc96e	-0.15213558
123	0x3f2b723c	0.6697118
124	0x3f04e74a	0.5191542
125	0xbdaebad9	-0.08531732
126	0xbd5de4de	-0.054173343
127	0x3e8e02ac	0.27736413
128	0xbe1806d5	-0.14846356
129	0xbe070b1d	-0.13187833
130	0x3e6cf2a1	0.2313943
131	0xbc210166	-0.009826994
132	0x3db8ad8d	0.09017477
133	0xbee05e7a	-0.4382208
134	0x3eefa5c9	0.46806172
135	0xbc50a720	-0.012735158
136	0x3ef7a76b	0.48369917
137	0x3f5df7ec	0.86706424
138	0x3e6f427f	0.2336521
139	0xbe0dfe31	-0.13866498
140	0xbe0cbaa5	-0.13743074
141	0xbddfd16c	-0.10928616
142	0xbe9f2491	-0.31082585
143	0x3f36f8fc	0.7147367
144	0x3ddcb5e2	0.10776879
145	0x3f0100a2	0.5039159
146	0xbe0dc401	-0.13844301
147	0x3ea27f08	0.31737542
148	0x3eb5da7a	0.35518247
149	0x3e929dd0	0.28636026
150	0xbe1ce627	-0.15322171
151	0xbe1cc22b	-0.15308444
152	0x3f306789	0.6890798
153	0x3eb39b5a	0.3507946
154	0x3efd8cd3	0.49521503
155	0x3eb025ab	0.34403738
156	0x3e8460ff	0.25855252
157	0xbdfce852	-0.12348999
158	0x3e71878d	0.23586865
159	0xbe40484a	-0.18777576
160	0xbeed8908	-0.4639361
161	0x3e8efc27	0.27926752
162	0x3f132421	0.57477003
163	0x3f059f53	0.52196234
164	0xbc8cf01f	-0.017204342
165	0x3edadf37	0.42748424
166	0x3e80e872	0.25177342
167	0x3ec72bce	0.38900608
168	0xbf1900d8	-0.5976691
169	0x3ecc7b57	0.3993785
170	0x3e08670e	0.13320562
171	0xbe7999cc	-0.24375075
172	0xbe61ae75	-0.22039206
173	0x3e98c24c	0.29835737
174	0x3c184df0	0.0092959255
175	0xbda75dcb	-0.081721865
176	0xbda59648	-0.080853045
177	0x3f379c45	0.71722823
178	0x3e629e51	0.22130705
179	0x3ebe6755	0.3718821
180	0x3e2bd1b8	0.1677922
181	0x3f12eb44	0.57390237
182	0x3dbd2378	0.09235281
183	0x3e959b82	0.29220206
184	0xbe1a4dcb	-0.15068738
185	0xbeaa3ba4	-0.33248627
186	0xbe47f547	-0.1952716
187	0xbed4f699	-0.4159439
188	0x3f2f55ae	0.6849011
189	0x3f045fdb	0.51708764
190	0x3edc42d8	0.43019748
191	0xbe163e34	-0.14672166
192	0x3eac4587	0.33646795
193	0x3f0008d5	0.50013477
194	0x3ee09d16	0.43869847
195	0xbe2de25e	-0.16980883
196	0xbe2dfae2	-0.16990235
197	0x3f31891f	0.69349855
198	0x3ebdb9c9	0.37055805
199	0x3f096b48	0.53679323
200	0x3e9c0471	0.3047214
201	0x3e37fe57	0.17968117
202	0x3cca8607	0.024722112
203	0x3ebebb0b	0.37252077
204	0xbdd211a9	-0.10257275
205	0xbf15f76d	-0.58580667
206	0x3ebefec7	0.37303755
207	0x3e885ad1	0.26631787
208	0x3f024605	0.5088809
209	0x3e331400	0.17488098
210	0x3e4ab30c	0.19794863
211	0x3ee135d4	0.4398638
212	0x3ecb9a69	0.39766243
213	0xbf1d3210	-0.61404514
214	0x3e64dffb	0.22351067
215	0x3e9e0e97	0.30870506
216	0xbe8b0f09	-0.27159908
217	0xbea0d437	-0.31411907
218	0x3ed23703	0.41057596
219	0x3ea7277d	0.32647315
220	0xbd6f83f8	-0.058475465
221	0xbe141923	-0.14462714
222	0x3f03bfcc	0.51464534
223	0x3ead0248	0.33790803
224	0x3e81995c	0.25312316
225	0x3ed7da3f	0.42158696
226	0x3ee4c8c3	0.4468442
227	0xbf3bb1ff	-0.73318475
228	0xbecd6e20	-0.4012308
229	0x3e39a34f	0.18128704
230	0x3ec8c532	0.39212948
231	0xbde4d321	-0.11173082
232	0x3f46fc3e	0.7772864
233	0xbe87b8c0	-0.2650814
234	0x3e7449b0	0.23856235
235	0xbd3644a1	-0.044499043
236	0xbef8dbc6	-0.48605174
237	0x3e0d960d	0.13826771
238	0xbdf93be9	-0.1216963
239	0xbc35677c	-0.011072036
240	0x3f20446d	0.6260441
241	0x3f0ab42e	0.5418118
242	0xbe352e4e	-0.17693445
243	0x3eaa23b5	0.33230367
244	0xbd97b347	-0.07407241
245	0x3e2ce009	0.16882338
246	0x3e003959	0.12521876
247	0x3f685b03	0.9076387
248	0xbd8cca31	-0.068745025
249	0x3e7b518b	0.24542825
250	0x3f4230a6	0.7585548
251	0xbea9f873	-0.33197364
252	0xbea35b07	-0.31905386
253	0x3eab1c77	0.33420154
254	0x3f04f050	0.5192919
255	0xbe15edf6	-0.14641556

linear1.bias f4 [8]
0	0x3f64be0c	0.8935249
1	0x3f1e46a6	0.6182655
2	0x3efc1b84	0.49239743
3	0x3eed8696	0.46391743
4	0x3f15f514	0.58577085
5	0x3f3bbe8f	0.73337644
6	0x3f0539c1	0.5204125
7	0x3edf7c36	0.43649453

linear2.weight f4 [8, 8]
0	0x3d901ea1	0.07037092
1	0xbeb15548	-0.34635377
2	0xbf76330a	-0.9617163
3	0x3efbefe6	0.49206465
4	0x3f6db524	0.92854524
5	0x3f823664	1.0172849
6	0x3f2d4667	0.6768555
7	0xbf5f587f	-0.8724441
8	0x3efdb7a9	0.49554184
9	0xbf129f83	-0.57274646
10	0xbf6c053e	-0.921955
11	0x3e911ad8	0.28340793
12	0x3f173b4b	0.5907485
13	0x3e912b36	0.2835328
14	0xbf21c403	-0.63189715
15	0x3f875fe7	1.0576142
16	0x3f6e04ac	0.9297588
17	0x3f964492	1.1739676
18	0x3ec64317	0.3872306
19	0xbeb49f99	-0.35278013
20	0xbed98526	-0.42484397
21	0x3f767346	0.96269643
22	0xbf32a89d	-0.69788533
23	0xbf4ac2f6	-0.79203737
24	0x3eb09e4a	0.34495765
25	0xbfa20324	-1.2657208
26	0x3e0f739c	0.14008945
27	0xbec732f6	-0.38906068
28	0xbe9c44d4	-0.30521262
29	0xbe489949	-0.19589724
30	0x3f9cd136	1.2251346
31	0x3f178d4d	0.5919998
32	0x3f7e58b0	0.99354076
33	0x3f8c55ca	1.0963681
34	0x3f948138	1.1601934
35	0xbead4b70	-0.33846617
36	0xbec1e5cf	-0.37870643
37	0xbee9c6ae	-0.45659393
38	0xbe8d6e8a	-0.27623397
39	0x3f748353	0.95512885
40	0x3f84d3e7	1.0377167
41	0xbedaebdb	-0.42758068
42	0xbecabbde	-0.39596456
43	0xbf1895c9	-0.59603554
44	0x3e67768b	0.22603814
45	0x3f9b6fd1	1.2143499
46	0x3f7a680f	0.9781503
47	0x3f83d734	1.030005
48	0x3f374dda	0.7160317
49	0x3e611ba6	0.21983203
50	0x3f4ebc89	0.8075643
51	0xbf826e4f	-1.0189914
52	0xbf3807a9	-0.7188669
53	0xbdbf08cc	-0.0932785
54	0x3ed23af3	0.410606
55	0x3f098bfa	0.5372921
56	0xbe445db2	-0.19176367
57	0x3f427a2f	0.7596769
58	0x3eefde75	0.4684941
59	0x3f99e906	1.2024238
60	0x3f9b78d4	1.2146249
61	0xbf2dd724	-0.67906404
62	0xbe34d410	-0.1765902
63	0x3e2fae51	0.1715634

linear2.bias f4 [8]
0	0x3f1dbbc2	0.6161462
1	0xbec37a8a	-0.38179427
2	0x3f15c4b5	0.58503276
3	0x3e543fde	0.20727488
4	0x3e502881	0.20327951
5	0x3eae78c5	0.34076515
6	0x3ef392e7	0.47573015
7	0x3ec40227	0.38282892

linear3.weight f4 [6, 8]
0	0x3f400e4d	0.7502182
1	0xbf25cb60	-0.6476345
2	0xbccfd011	-0.025367768
3	0x3e0381ea	0.12842527
4	0xbfabb725	-1.3415266
5	0x3f1568ec	0.58363223
6	0xbe31f0e8	-0.17377055
7	0xbf9cce12	-1.2250388
8	0xbf82520e	-1.0181291
9	0xbe0e33e6	-0.13886985
10	0x3ec1abc3	0.37826356
11	0xbf36aa1e	-0.7135333
12	0x3f154c51	0.58319575
13	0xbfb3dfda	-1.4052689
14	0xbe055eb4	-0.13024408
15	0x3e5796f6	0.21053681
16	0x3e9d57c0	0.3073101
17	0xbe846eca	-0.25865775
18	0xbf6b2eae	-0.918681
19	0xbf3556d1	-0.70835596
20	0xbfaca1de	-1.3486898
21	0xbf22c744	-0.63585305
22	0xbf6dd706	-0.92906225
23	0x3f50f0fb	0.81617707
24	0xbf43074e	-0.7618302
25	0xbcf6266b	-0.030047616
26	0xbf921955	-1.1413981
27	0x3f052bf3	0.52020186
28	0x3ddfd3bc	0.10929057
29	0x3e91807d	0.2841834
30	0x3f0334c9	0.5125242
31	0xbf68e161	-0.909689
32	0xbebf1188	-0.37318063
33	0x3f7e81f3	0.99417037
34	0xbf1d9c91	-0.61567026
35	0xbf733e67	-0.95017093
36	0xbedd7648	-0.43254304
37	0x3f0f2df8	0.5592952
38	0xbf8f3484	-1.1187901
39	0xbadc845a	-0.0016824112
40	0xbee4d061	-0.4469023
41	0xbf32a5de	-0.69784343
42	0x3f0ecc8b	0.5578086
43	0xbfa1a286	-1.2627723
44	0x3e9784fd	0.2959365
45	0x3debf974	0.11522189
46	0x3ed0c16c	0.4077257
47	0xbf9eb5e2	-1.2399256

linear3.bias f4 [6]
0	0xbe518851	-0.20462157
1	0x3dbdd085	0.092682876
2	0x3e4b8f0f	0.19878791
3	0xbdbb8462	-0.091561094
4	0xbe96b983	-0.2943841
5	0x3d5f938c	0.05458407
